ConformalPrediction/cifar_net.pth (torch, 251604 bytes, 10 tensors)

conv1.weight f4 [6, 3, 5, 5]
00000000: 0ded 6bbe 850e 0dbf 4d7e f73e 2dae ffbd
00000010: f748 113e 168a 06bf 8c8d b0be fa98 803f
00000020: 1665 42be 256d 72be 1f6f 3fbe 1bd3 213f
00000030: 59c2 0a3e ae32 89bf 557c 633e c062 fb3c
00000040: 4786 0d3e f488 22bf cacf 3abf 4979 113f
00000050: c5da 08be 3bba eebe 9018 973c 8b8e 0d3f
00000060: 2d14 be3c 586b 9f3e 125c 49be 72cc 3b3f
00000070: 9538 3ebe 7e94 73be 1b34 03be c33a 133b
00000080: 5d95 8e3f 9a4c a1be 30c3 dcbe f64c ba3e
00000090: 9fea 823f daae 803e 6c65 87bf 4219 473d
000000a0: 354d 023f 2716 1f3f 4b99 bbbe 87fa 3cbf
000000b0: 569f d33e 524d a43e ab5b 54be 3bc3 2d3e
000000c0: 9564 203f 197c a4bd 2fbc 30be 5154 dabe
000000d0: 1bf3 fe3e 8a2c 58be 95a7 2abe 95be b7be
000000e0: 6e03 9cbe eb62 593f 2ac7 6fbe a852 78be
000000f0: 5ff6 ccbd 2488 213f d9c7 133e 64df 49bf
00000100: 5079 dd3e d429 8f3d 0a4b 553e 246f 00bf
00000110: 1b3c 0dbf ebf8 123f d96f 8dbe 7d13 ecbe
00000120: c075 79bd 024c 053f a607 c5bd c8e1 f0bd
00000130: ae6c 82be 8c2e 9ebe 4fdc 72bd 7b18 203e
00000140: f3e7 58be 377f dbbe ba06 4ebf 1925 12bf
00000150: 8c5d 39be f6c3 f2bd 2868 883e cf71 a63e
00000160: d0b8 4e3e acdb f7bd 9303 563d 02a8 903e
00000170: bd12 f13e 470d af3e 966a 753d 0980 943e
00000180: 4955 923e 8547 de3d 690d c63e 7d6e ae3e
00000190: e642 463d c1b5 05be 2a94 13be 539a e83d
000001a0: dc37 8e3e ba86 fabb 54f1 a7be 5c20 0dbf
000001b0: 5d53 f7be f1b9 0ebd fe71 0c3e 2d80 5e3e
000001c0: 1b62 d93e 6a00 983d 1793 66ba 1382 93bc
000001d0: 1fdd 1a3e 5d0a 9d3e 07ac 7b3e 6c3b b1bd
000001e0: ed90 d8bd 9461 983d 3031 8bbd a534 e03d
000001f0: ac0b 0dbd 77d1 133e b634 1fbe e970 03bd
00000200: a67b a83d 1941 c93e 14f3 70bc 0df0 b2be
00000210: 6c48 36bf f602 0abf 8895 08bd a8d6 b2bd
00000220: aa2a 9b3d d497 913e 53a7 183e 5a40 d0bc
00000230: 210c c3bd d9e3 3d3e 2eb8 7c3e ffe9 963e
00000240: e10a f4bc bb10 ae3b ff8e aa3c 6658 00be
00000250: c778 553d f0d2 e1bd a3a5 b33e e81d 0dbd
00000260: b6c5 813d bd4c e73e b018 4d3c 6229 b63e
00000270: b2ab 7abf 0102 0dbe 6851 2c3f 282f 253d
00000280: 7011 273e f274 8cbf 8474 d63d 01e4 1c3f
00000290: a94d ac3d 6b98 163d d89d 10bf 34be 8c3d
000002a0: e54b a73e aaab 293e e329 f63d 3c38 06be
000002b0: 15dc e23d 6570 18be 9007 50be b44e 26be
000002c0: 4755 35bf 2d6a 9ebe 19cf de3d 781a 1e3d
000002d0: 1c9f 133e a556 a3bf 399d 8bbe 807b 4c3f
000002e0: fc8b 713e 9adb 5b3e b323 a6bf 5981 8cbe
000002f0: 31e6 373f 7ccc 063e 21bb 333e e245 0ebf
00000300: 7b5c c03c 8723 393e f821 8d3d 7b4e df3d
00000310: 0ac4 dcbd fe0e 273a b1db 233d fa4f 0ebc
00000320: 4a00 d53d e02c 09bf c3ef 81be 0503 ad3e
00000330: d818 80bc 0f67 813e 88d6 6fbf 82b0 26be
00000340: 13cb 493f ea34 023e a065 843e 6fa5 6abf
00000350: c95b 003e 345e 2d3f c9ae 613d 3c90 1e3e
00000360: cfb3 e4be 42f4 333e f54e 8e3e 86fc fe3b
00000370: 315a ab3e 5862 ce3d b2aa 0a3e be14 9f3c
00000380: 3364 913d 9781 803e 74a0 d33d 0c8c f2bd
00000390: 8e8e 68bd f215 27bd f811 2cbe c794 b1be
000003a0: c098 c5be 2bad 94be a5c9 61be 1b0c abbe
000003b0: 470a cfbe 5e98 c8be 45f9 85be d712 64be
000003c0: 6720 dbbe a089 f8be f04e 05bf b4b8 adbe
000003d0: b936 ffbe b415 44be 9be8 41be d1a3 82be
000003e0: e247 15be bb15 03be d6eb 813e b1c8 b03d
000003f0: 2732 2c3d e8c6 383d 86eb 353d c3a9 be3d
-0.23039646 -0.5510028 0.48338547 -0.12484393 0.1418799 -0.5255445 -0.34482992 1.0046685
-0.18983874 -0.23674448 -0.18694733 0.63212746 0.135507 -1.0718591 0.22215398 0.030686736
0.13820754 -0.63490224 -0.7297331 0.5682569 -0.13364704 -0.46626458 0.01844433 0.5529563
0.02320298 0.31136584 -0.19664028 0.73358834 -0.18576272 -0.23787114 -0.12812845 0.0022465445
1.1139332 -0.31503755 -0.43117666 0.36386842 1.0227851 0.251334 -1.0577826 0.048608072
0.5089906 0.62143177 -0.3664039 -0.73819774 0.413325 0.3209024 -0.20738094 0.16969006
0.62653476 -0.08031482 -0.17259286 -0.42642453 0.4979485 -0.2111074 -0.1666549 -0.3588759
-0.30471367 0.8491656 -0.23415819 -0.24250281 -0.10007929 0.6309836 0.14431705 -0.7885649
0.43256617 0.069904 0.20829406 -0.5016959 -0.5516984 0.5741107 -0.27624395 -0.46108618
-0.06090331 0.52069104 -0.096205994 -0.11761814 -0.2547354 -0.30894887 -0.059292134 0.15634339
-0.21182232 -0.42870495 -0.80479014 -0.57087857 -0.18102092 -0.11853783 0.26641965 0.32508704
0.20187688 -0.12102446 0.052249502 0.2825318 0.4708461 0.34189817 0.0599161 0.29003933
0.28580692 0.10853485 0.38682106 0.3406867 0.048403643 -0.13057615 -0.14411989 0.1135756
0.27776992 -0.007645455 -0.32801306 -0.551275 -0.4830579 -0.034845296 0.1371536 0.21728583
0.4245766 0.07421954 -0.0008795722 -0.01800636 0.15123414 0.3067197 0.24577342 -0.08653912
-0.105745174 0.074404866 -0.06796491 0.10947541 -0.03443496 0.14435373 -0.15547451 -0.0320901
0.08226709 0.39307478 -0.014706392 -0.3494877 -0.71204257 -0.5391077 -0.03334573 -0.08732349
0.07576497 0.28436148 0.14907579 -0.02542131 -0.09523798 0.18543948 0.24679634 0.294754
-0.029790344 0.005312053 0.020820139 -0.12533721 0.052117135 -0.11026561 0.35087308 -0.03445235
0.063365385 0.45175734 0.012518093 0.35578448 -0.97918236 -0.13770296 0.67311716 0.040328175
0.16315246 -1.0973189 0.10471442 0.61285406 0.0841325 0.03676645 -0.5649085 0.06872216
0.3267509 0.16569391 0.12019708 -0.13107389 0.110771336 -0.14886625 -0.20315385 -0.1624096
-0.7083325 -0.3094038 0.108793445 0.03859946 0.14416164 -1.2760817 -0.2726839 0.79875946
0.23588556 0.2147049 -1.2979645 -0.27442434 0.7183562 0.13163942 0.17551853 -0.5557538
0.023481598 0.18079959 0.06891245 0.10903641 -0.10779579 0.00063727784 0.040004436 -0.00868606
0.10400446 -0.535841 -0.25378236 0.33791366 -0.015636846 0.2527394 -0.93686724 -0.1627827
0.7882549 0.12715498 0.25858784 -0.9165868 0.12535013 0.6772187 0.05509833 0.15484709
-0.44668433 0.17573646 0.27794614 0.007781568 0.33467248 0.10077351 0.13541678 0.01941907
0.070991896 0.2509887 0.103333384 -0.11843118 -0.056776576 -0.040792413 -0.1680373 -0.3468382
-0.38593102 -0.29038367 -0.22049578 -0.33407673 -0.40437528 -0.39178747 -0.2616674 -0.22272812
-0.4279816 -0.485425 -0.52073574 -0.3392998 -0.49846438 -0.19148904 -0.18936388 -0.25515607
-0.14578202 -0.12801258 0.2537524 0.08632029 0.042040017 0.045111567 0.044414066 0.09309723

conv1.bias f4 [6]
00000000: 843f e3bc 4397 cdbe 1cbc c0be 8c4b 253f
00000010: 8624 75bf 06f9 813e
-0.027740248 -0.40154466 -0.37643516 0.645684 -0.95758855 0.25385302

conv2.weight f4 [16, 6, 5, 5]
00000000: e1ed 69be 1afa f5bd 7f78 4ebd ad63 2e3d
00000010: 61c4 823d 6804 0abd 1cb9 8c3c 774d 383e
00000020: b21c 373e 1516 943d 0583 c3bd bf2c ca3d
00000030: 14db 5dbd 3786 db3d 223b aabd 78da 443e
00000040: c40b 34bd 760e a53c 0f55 4c3e 7578 2d3d
00000050: 13f8 713d 5fbd 473d a6d3 873d 36cc 383e
00000060: ef66 453e f9ad b0bc d117 e1bd 1500 d83d
00000070: 7cb1 d23d ae65 99bd 32da 9fbd 7285 13be
00000080: 68ea 73be b091 6bbe 6c39 ccbd 2de3 48be
00000090: a86f 66be 927b b3bd 5129 65be 0e22 963d
000000a0: ae39 9d3d cbfe 1fbe 6b73 b93c 2d1f 8bbd
000000b0: 6143 02be 7c40 14bd 67d0 a6bd 188a 87be
000000c0: b8e6 34be 6b2d 29be 2943 0dbf a46b 0fbe
000000d0: 7707 b4bd 09db 013e 4914 9ebe 4a96 8ebe
000000e0: 649e 6cbe 2909 293b 941f 53be 80fa cfbe
000000f0: 764f d037 3569 3cbe cc47 b53d a6be 5fbe
00000100: 2996 e6be 4e70 f33d 651d 43bd e0e8 f63d
00000110: 3cb4 3cbe e359 cabe 5b75 153c 5db9 a83c
00000120: 8991 f73d afb8 b9be 2d24 07bf 5f4b f6bc
00000130: 7b38 ccbd 2ada 2ebd eb0f 29bd a659 7c3d
00000140: b439 78bc 3815 e1bd e01b 8dbd 70f4 17bb
00000150: dd97 673d 33aa adbd ff3f 6cbe 4938 c1bc
00000160: a9b1 6dbb a5f7 563e f45f 24bd 3de4 d7bd
00000170: a5d5 babd 6408 123d 4b2c 7a3e 5e1c 843d
00000180: f290 c0bd 952e 6a3d 179e 353e 80af 913e
00000190: d423 33be e358 4cbe b3cb 513d 111e 893d
000001a0: edab a03d bbd7 b53d e409 543e acab 673e
000001b0: 82ac 05be 544d c3bd 9fea 3d3d 05e6 863c
000001c0: d1cf ddbc aff6 06be 403f 70bd e8ca a6bd
000001d0: 00b9 98be 9096 97be 8b3c b8be f44e 94be
000001e0: e5d7 36bd 04fb 8abe 4862 6cbe 8863 cfbe
000001f0: b1cb 89be e64a e13d cfc1 203e 379f 763e
00000200: d9f4 1d3e 6e2d 80bd 2e5a b13d 1373 323e
00000210: 4a0a 8f3d c33f 4a3e 69f7 49bc 974d 433d
00000220: 44f3 6d3e 70ba 09bd fd37 2c3e a44c 633a
00000230: c63a 803d 7f65 1cbd 1f06 f0bd e6d8 e53d
00000240: b0f5 733b 90af 6b3e e109 3a3e cbaf bbbc
00000250: 9387 323e e75a 033d 8391 993e 6887 e7bb
00000260: 1a84 89be 5ab8 47be a7a1 87be f82c 383e
00000270: 4631 3abe f293 6d3e 2433 3abe 8c41 83be
00000280: 8fea 82be 51b5 46bd 8cd4 353e 2d93 69be
00000290: 252a a9be c532 b4be 9ff0 2d3e 10db 913e
000002a0: bbb4 e33b b46b 9dbe 916b 2cbe 03ce c83d
000002b0: f580 4b3e d265 30bd 70c4 19be d4a2 9fbe
000002c0: 1c9b dbbd 1eac 4e3e e00f 8d3e afc9 0c3c
000002d0: af04 f0bd 7189 333e 04ba 20bd 5186 72bd
000002e0: b74b c13c 83d3 773d dfde 23be 3d7b babe
000002f0: 4964 a8be 6261 163d 6ded 883d 25c8 a0be
00000300: 2cf6 a7be 5c7b adbc 2b67 423e 9bce 533d
00000310: bf61 58be 9cfa dcbd 0843 813e 97e2 423e
00000320: 55d7 413e e1b0 fa3d b1b8 b13e c0d3 193e
00000330: ef7c 86be 624b fa3d 9d6b c43e 6d86 793e
00000340: 2bb8 6ebe 338c 47be ca53 6e3e fdbd d43e
00000350: 2de7 ea3c d52c 06be 3bb3 f7bc 0299 c23e
00000360: 3546 713e 5ede 5e3d 8fb9 413c e951 82bd
00000370: 49fb 8c3e e6f0 2c3e fbcf 89bc 5154 58be
00000380: 648f 78be 9fa5 423e d4aa af3d 4089 4fbe
00000390: 7ec1 14be 5ad8 043d e451 533e 3f2a 0c3d
000003a0: cdba a1be ec3b b5bd 7164 aa3d edbf 653e
000003b0: 0ba9 09be a382 5fbe bc69 e8bd fcdc 98bc
000003c0: 213f 9a3e 37e1 7e3c 0d25 f5bd ecd2 ebbd
000003d0: 3912 e93b ac12 833e 9c5b 29bd 5455 b0bd
000003e0: b54f c3bd a3c6 d2bd 94b1 be3d 01ab 24be
000003f0: 810b 9fbe 35fa 13be 42c8 fe3d c1b5 efbd
-0.2284465 -0.12010594 -0.050407883 0.042575527 0.063851126 -0.03369561 0.01717811 0.179983
0.1788204 0.07230774 -0.09546474 0.09871816 -0.054164007 0.10718959 -0.0831206 0.19223964
-0.043956533 0.020148497 0.19954322 0.042351205 0.059074473 0.048764583 0.066321656 0.1804665
0.19277547 -0.021567332 -0.10990871 0.10546891 0.10287759 -0.07490097 -0.07805289 -0.14406374
-0.23819888 -0.23004794 -0.0997189 -0.1961791 -0.22503531 -0.087638035 -0.22379042 0.07330714
0.07677017 -0.1562454 0.022638043 -0.06793056 -0.12721016 -0.03619431 -0.08145218 -0.26472545
-0.17666137 -0.16521232 -0.55180603 -0.14005905 -0.08790486 0.12681212 -0.3087485 -0.27849036
-0.23107296 0.0025792813 -0.20617515 -0.40620804 2.4832534e-05 -0.18399508 0.08851585 -0.2185007
-0.45036438 0.11886655 -0.047635455 0.12056136 -0.18428129 -0.39521703 0.009122218 0.0205962
0.120883055 -0.36273715 -0.52789575 -0.030065237 -0.0997171 -0.042688526 -0.041274946 0.061608933
-0.015150476 -0.10990375 -0.06890082 -0.0023186468 0.056541312 -0.084797285 -0.23071288 -0.02358641
-0.0036269224 0.20992906 -0.04013057 -0.1054158 -0.09122781 0.035652533 0.24430959 0.06450723
-0.09402646 0.05717333 0.17736088 0.28454208 -0.17494136 -0.19955783 0.051219653 0.06695188
0.07845292 0.08879038 0.20706898 0.22624081 -0.13054088 -0.095362335 0.04636633 0.016467104
-0.027076634 -0.1318004 -0.05865407 -0.0814417 -0.29828644 -0.29607058 -0.3598369 -0.28966486
-0.044639487 -0.27144635 -0.23084366 -0.40505624 -0.26913217 0.11000614 0.15698932 0.24084173
0.15425433 -0.06258665 0.086597785 0.1742671 0.06984384 0.19750886 -0.012327054 0.047681417
0.2323733 -0.033625066 0.16818233 0.0008670783 0.0626121 -0.03818273 -0.117199175 0.11223011
0.0037225299 0.2301619 0.18167831 -0.022910973 0.1743453 0.032069113 0.2999383 -0.007065702
-0.26858598 -0.19503918 -0.26490518 0.17985904 -0.18182859 0.23200968 -0.18183571 -0.25635946
-0.2556958 -0.04851276 0.17756861 -0.2281005 -0.33039966 -0.35194984 0.16986321 0.28487444
0.006949035 -0.30746233 -0.16837908 0.098049186 0.19873412 -0.043065853 -0.15016341 -0.31178916
-0.10722944 0.20182845 0.27551174 0.008593007 -0.11719643 0.17532898 -0.0392399 -0.059210125
0.023595674 0.060504448 -0.16002987 -0.36422148 -0.32889012 0.036713965 0.066859104 -0.31402698
-0.32805002 -0.021176986 0.18984668 0.051710706 -0.21131037 -0.107899874 0.25246453 0.1903175
0.18929799 0.12240768 0.3471122 0.15022182 -0.26267192 0.122214094 0.38363352 0.24367686
-0.23312442 -0.19487076 0.2327415 0.415512 0.028674686 -0.1310304 -0.030236831 0.3800736
0.23561938 0.054411285 0.011824026 -0.06363279 0.27535465 0.1688877 -0.016822806 -0.21125914
-0.24273449 0.19008492 0.08577505 -0.202672 -0.14526936 0.03243289 0.20636708 0.034219977
-0.3158783 -0.0884932 0.08319939 0.22436495 -0.13443391 -0.21827178 -0.11348292 -0.018660061
0.3012629 0.015556625 -0.119699575 -0.115148395 0.007112768 0.25600183 -0.04134713 -0.08610025
-0.09536687 -0.10291793 0.09311214 -0.16080858 -0.31063464 -0.14450915 0.1244054 -0.11704589

conv2.bias f4 [16]
00000000: 9236 a23f a742 95bd a840 e53f 7333 7abf
00000010: 436a 9a3f ee10 41be 7713 263f 31e7 713e
00000020: ef33 3abe 311c 0abf 58d9 ae3e 32cd d43e
00000030: 3e03 60be 46d8 3d3f 50ce 59bf 1631 21bf
1.2672904 -0.072881036 1.7910357 -0.97734755 1.2063679 -0.18854114 0.6487345 0.23623349
-0.18183874 -0.53949267 0.34150195 0.41562802 -0.21876237 0.7415813 -0.8508043 -0.62965524

fc1.weight f4 [120, 400]
00000000: d040 36be 81ab 52bd 9dd9 ffbc 81f7 49bd
00000010: bb0b 053c 8416 28be 0b95 173c 1b7a a9bd
00000020: 868e bebd 2f11 8b3d 88d9 e4bd 3035 5d3c
00000030: c7e8 9a3d 963f 753c 4c60 ca3d af63 133e
00000040: b029 0fbd 991c dabc 0aa4 60be 0f4e 94bc
00000050: dd1b d3bd bd12 203e b96d 473e f5e7 8f3c
00000060: 8fe1 383e 1e12 8c3e d829 a33c 1d78 0a3d
00000070: a8d3 bb3d dc28 853e a95e 76bd ae17 b4bc
00000080: ba1a 163d a763 debd 4587 5e3d 3826 86bd
00000090: 1e1e 43bd de46 9abd 4250 6dbd 38a5 313c
000000a0: 379d 1fbd 9da6 463d 92a2 583d b14d 263d
000000b0: ce4b 8cbd 6c7a 693d 381c 0f3e c44c ee3d
000000c0: 3742 813d ba84 883d 7c3d 5cbd 04f8 a7bd
000000d0: 353e 0f3e cb2b 663e 9acd 023e 6adb c43b
000000e0: 1671 8fbc 4135 903d 968c 0f3e 9761 9dbd
000000f0: b47c 9e3c 58db d1bc dd92 893d e077 bd3c
00000100: 7b60 02be 135d 173e 353d 833c 2fa9 00be
00000110: a817 c2bd dde7 90bd aca1 013e 982c 2e3c
00000120: c907 36bd 78d1 103d e6c5 65bc 9723 65be
00000130: 98cc 293d ffa2 27bd c462 cb3d 9723 c93d
00000140: d7c9 dd3c 4b8f cd3d 7ff9 493d d3e8 11bd
00000150: 99c5 1d3d 2598 4b3e d6a7 943d e4b4 7cba
00000160: 03cb b63d 4779 fe3d a4f4 0ebc 8357 a93d
00000170: a49e 58bc 1030 bf3d 4e48 93bc 8d6e 473c
00000180: 3e72 eb3d b7a4 ce3d 3229 263e 5639 02be
00000190: 87ca 323e d61f a3bb c1ea bdbd 6fd2 2abd
000001a0: 83e4 94bd f3b5 803b b3f3 093d bc40 63bd
000001b0: a692 63bc 5d7e 09be 4d49 4bbd 76da f93c
000001c0: 0ff9 a53d 5923 e0bc 8b99 7e3d d803 dbbd
000001d0: bd3f 6f3d 5019 693d 97a0 5c3c d789 0bbd
000001e0: a55a 7ebd af07 2c3d cd48 bc3b cc02 f23b
000001f0: 8899 07bd 1113 abbc d101 bcbc 519c 13bd
00000200: 79d6 b7bb 60d8 de3c 9487 33be 35c7 20bd
00000210: 2b0d 53bb 89fe f73c 09ae b7bd 688e 51be
00000220: af38 e63c 172e b73d 54e9 893d defa 49ba
00000230: d2ee 39bd 895c 843e 640b 423c 2ebe 9c3d
00000240: 836d a93d 3b61 ac3d 726b c03d fe47 eb3d
00000250: 3335 3c3e 06cf 78bc 2fd1 f1bd daa0 cfbd
00000260: e069 2ebe 1e87 27be c9fd c0bc 6fde 37bd
00000270: 27f5 3dbd 786d 9f3c 070c 61bc fa63 543d
00000280: 0c44 f43d 98fc c2bc de32 7cbd 6a3f fcbd
00000290: 3595 d7bd bf58 03bd 6441 dfbd 529e 0fbe
000002a0: 28b3 b2bd 468c 29bd 68bd 0dbe 2572 3abe
000002b0: 7788 f3bd 49e4 16be 2e65 06bd f49f 9dbd
000002c0: bf5e b6b9 dc1b 763d 0749 8abc f9be 23bd
000002d0: c526 36be a912 0bbc c079 e2bb 0c1c d9bc
000002e0: 08ff a6bd 5f75 5f3d 9c93 7c3c 97ec 8a3d
000002f0: c4d0 583d 152a 2dbd 78b0 013c e6fd c1bd
00000300: 770f bbbd fd01 10bd 80d9 3a3d aeac 183d
00000310: f6a6 adbc ed09 d6bd a0da 84bd 88f4 0d3e
00000320: 9158 863d 8188 d9bc 1c1e 8a3d d7fd d13d
00000330: 02d1 643b 505c ae3d 9664 c13c 31c9 2f3d
00000340: 51bd a33c dbd8 233c e7c7 1abd eba3 adbc
00000350: 24aa 1f3d b127 923d 0c0a e3bc 5dd4 923d
00000360: 2aa4 263e b153 13bd fab2 79bc e531 c7bd
00000370: 8142 323e eb67 6f3e 623c 463c e97a a03d
00000380: d218 7abc 5ee1 9d3d bc01 c43d 5da2 a13d
00000390: 4311 63bc 274b c5bd 0129 133e dc01 d3bc
000003a0: b07f c63d 8dfe e63d bcd5 bbbd 3e22 113a
000003b0: 3dad 43bd 92ce 593d 64ed 013e c309 a53c
000003c0: c933 27bd 5a37 3fbd 5ade d0bc a21e 69bb
000003d0: 960a 713d 5aba aebe 1ee2 2abe d9a3 87bc
000003e0: fa72 27bd a4b7 c8bc 5884 1a3e 64aa 493e
000003f0: 477a 093e 6108 92bd f61d 9ebd ad7d c0bc
-0.17798162 -0.05143309 -0.031231696 -0.049308304 0.008120473 -0.16414839 0.009251843 -0.08275243
-0.09304528 0.06790387 -0.11174303 0.01350145 0.0756393 0.014968773 0.098816484 0.14393495
-0.034951866 -0.026624965 -0.21937576 -0.018103627 -0.10308049 0.15632148 0.1947545 0.01756666
0.18054794 0.27357572 0.019917414 0.033805955 0.091712296 0.26007736 -0.06014887 -0.021983948
0.036646582 -0.10858851 0.05432822 -0.065502584 -0.047636144 -0.07533048 -0.057937868 0.010842614
-0.03896829 0.04849874 0.052889414 0.040601436 -0.06850396 0.057001516 0.13975608 0.11635736
0.063114576 0.066659406 -0.053769574 -0.08201602 0.13988574 0.22477643 0.12773743 0.0060076015
-0.017509978 0.070414074 0.14018473 -0.076846294 0.019346572 -0.025617287 0.06717465 0.02312845
-0.12732117 0.14781599 0.016020397 -0.12564538 -0.09477168 -0.070754744 0.12659329 0.010630749
-0.04444102 0.035356015 -0.014024233 -0.22376858 0.04145488 -0.04092693 0.099309474 0.09821241
0.027073784 0.100370966 0.049310204 -0.03562243 0.038518522 0.19882257 0.07258575 -0.0009639992
0.0892544 0.124254756 -0.008725319 0.08268645 -0.013221417 0.09335339 -0.017978813 0.012172353
0.11496399 0.100900106 0.16226652 -0.12717184 0.1746007 -0.0049781604 -0.092732914 -0.04170459
-0.07270148 0.00392794 0.033679675 -0.055481657 -0.013889944 -0.1342711 -0.049630452 0.030499678
0.08104145 -0.027360605 0.06215815 -0.106940925 0.058410395 0.056908906 0.013466022 -0.034067
-0.062098164 0.041999515 0.005745983 0.0073855873 -0.033105403 -0.020883115 -0.022950085 -0.036037747
-0.005610284 0.027202785 -0.17532188 -0.03925248 -0.0032203894 0.030272739 -0.089687414 -0.2046448
0.0281032 0.08944338 0.06733957 -0.00077049236 -0.045393772 0.2585185 0.011843536 0.076534614
0.08272841 0.08416983 0.093954936 0.11488341 0.18379669 -0.015186077 -0.11807477 -0.10138102
-0.17032576 -0.16360137 -0.023558514 -0.044889864 -0.046376374 0.019461378 -0.013735778 0.051853158
0.119270414 -0.023802087 -0.06157195 -0.12316783 -0.10526506 -0.032067057 -0.10901144 -0.14025238
-0.087255776 -0.04139354 -0.13841784 -0.18207605 -0.11891263 -0.14735521 -0.032811336 -0.07696524
-0.00034784336 0.060085163 -0.016880525 -0.039977048 -0.17788227 -0.008488336 -0.0069114864 -0.026502632
-0.08154112 0.054555293 0.015416052 0.06783407 0.05293347 -0.04227646 0.007915609 -0.094722554
-0.09133809 -0.035158146 0.04561758 0.037274055 -0.021197777 -0.10451112 -0.06487012 0.13862813
0.065598615 -0.026554348 0.06744024 0.10253494 0.0034914617 0.08513701 0.023607533 0.04291648
0.019987734 0.010000433 -0.037788298 -0.021196326 0.038980618 0.07136477 -0.027714752 0.07169411
0.16273561 -0.035968486 -0.015240425 -0.097263135 0.17408182 0.23379485 0.012099357 0.07835943
-0.015264707 0.07709001 0.09570643 0.078922965 -0.013859096 -0.09633475 0.1437111 -0.025757723
0.09692323 0.112790205 -0.09171626 0.00055364135 -0.047772635 0.053175516 0.12688214 0.020146256
-0.04082087 -0.046683647 -0.02549665 -0.0035571237 0.058847986 -0.3412655 -0.1668782 -0.01655762
-0.040881135 -0.02450163 0.15089548 0.19693905 0.13425551 -0.071305044 -0.07720558 -0.023497427

fc1.bias f4 [120]
00000000: 6220 1dbe 29bb 883d 071b 8abd 789f a93e
00000010: d4ee aebd c5bd 4ebd 242d bebe e926 00be
00000020: 42fd 96bb 7af7 11bd 5b89 f53c a6d2 a53d
00000030: eec9 b0bd c97f d23d 1602 913e db5e 6e3d
00000040: f50e 2bbc 3b7b 79bd 6d63 493b 6247 9b3d
00000050: 73e9 cb3e a581 be3d d451 c83a f84b 45bd
00000060: a36b 5b3d 8d36 893d ea8f d13d b11a 3e3e
00000070: a5e8 1b3e 0df5 963b f734 da3d 6ffd 6bbd
00000080: fc7a 9d3c 6d86 a13c 4a15 c1bd 2b2b 253d
00000090: 3a55 cebb be59 8dbd dd93 0c3d 7c5d 79bb
000000a0: 73df ddbc 5a14 c93d 7968 24bd 194f 2d3e
000000b0: 529f 5d3e f925 8f3d b076 00bb 3563 1c3e
000000c0: 0c7e 023d 5225 963d 3d2d e5bd 534b 9ebc
000000d0: 3063 36bc 1bc6 703e abec a03c c05c 043d
000000e0: bf98 893d 7e6d 023e 5fed 0a3d 3ff7 d8bd
000000f0: 1602 373d f987 a2bd 393b fc3d 8e4e ae3d
00000100: 37b0 edbd 4365 863d fc6f 933d 87dd 83bd
00000110: d08a 03bd 7902 c43e 48b9 7d3e 02bf 383d
00000120: 0d15 a73d 4519 93bd d6ac 003e 6605 86be
00000130: 0d8e 1bbd 0be3 283e 4bac 043d 5e16 34bd
00000140: e290 fb3d fcc0 f43d 5040 9e3c db2c f73d
00000150: 5138 a33b e341 89bd 6336 afbc 41e4 573e
00000160: 0d55 dc3d 2bc0 93bd ea2f 80bc 84ef 3fbd
00000170: 0fe3 babd 2ed0 65bc dfe6 413d c495 f03d
00000180: 9e8b a8bd 524c 8fbe 0e2f 7dbd ce5c 9c3e
00000190: 388e 4c3e 5b2a 713c 0554 98bc ebe9 bc3d
000001a0: 3874 af3d 3513 663c 07f5 9f3d 3fca 61bd
000001b0: 2abe 2c3e 6185 483e 32d1 413d 7647 22bd
000001c0: 6faa 1b3d 16e4 0e3d 8759 3cbe 6c63 433d
000001d0: 00e5 a63d 0a93 8fbd 95ee 193e 4966 ca3d
-0.15344384 0.06676323 -0.06743436 0.33129478 -0.085416466 -0.050473947 -0.37143815 -0.12514843
-0.0046078274 -0.035636403 0.029972723 0.080968186 -0.08632265 0.10278279 0.28321904 0.05819593
-0.010440578 -0.060908537 0.0030729428 0.075819746 0.39826545 0.093020715 0.0015283176 -0.048168153
0.053569447 0.06699858 0.102325276 0.1856487 0.15225466 0.004606849 0.106546335 -0.05761474
0.019223683 0.01971742 -0.09427889 0.04032437 -0.006296781 -0.069018826 0.0343207 -0.0038050106
-0.027084088 0.09818335 -0.040138695 0.16924705 0.21642807 0.069896646 -0.0019601993 0.1527222
0.03185849 0.07331337 -0.11190269 -0.019323027 -0.011132047 0.23513071 0.019644102 0.032315016
0.06718587 0.1273708 0.03391778 -0.105940334 0.044679724 -0.07936091 0.12315983 0.08511077
-0.11605876 0.06562283 0.07199094 -0.06438737 -0.032114804 0.38283136 0.2477771 0.045104034
0.08158312 -0.07182554 0.12565932 -0.26175994 -0.037977267 0.1649286 0.032390874 -0.043966644
0.122834936 0.11950871 0.019317776 0.120691024 0.0049810787 -0.0670202 -0.021388238 0.21083166
0.1075841 -0.072143875 -0.015647847 -0.04685928 -0.09125339 -0.014026685 0.047339316 0.117473155
-0.08229755 -0.27987915 -0.061812453 0.30539554 0.19976127 0.014719571 -0.018594751 0.09224304
0.08567089 0.014042665 0.07810407 -0.055124518 0.16869417 0.1958213 0.047318645 -0.03961893
0.038004335 0.03488549 -0.18393527 0.047702238 0.08149147 -0.07010467 0.15032418 0.098827906

fc2.weight f4 [84, 120]
00000000: d2d9 38bd 799a a43d 49d3 dabc c103 1fbe
00000010: e0ff 92bd cd90 c4bd 1274 3abe 5b11 7d3c
00000020: 3c08 7cbd 5f2d d7bd 7ffd 8f3d 95a9 0bbe
00000030: 71ba 28be 31cc bcbc 88d8 29be 4e7a 523d
00000040: 21e7 9c3d 5ca5 8a3d 7b96 40bd afbe 9c3d
00000050: 7d89 113d 779f 56bd 8d13 873d 38a1 91bd
00000060: 43b7 8abd 3135 8e3d f1e2 ccbd 9efb eebd
00000070: d995 acbd 00e4 e83c 7466 d7bd e7f1 143e
00000080: 605d 19bd 1236 8bbd 5f0f a8bd 3981 1ebd
00000090: 4e5c 9fbb 73f3 153e 6b71 263c f0cc 8ebd
000000a0: b5dd 3bbb 3e36 713d 228d 8ebd eb61 b3bd
000000b0: 92fd 563e eff2 f53c 3696 d3bc 7adb e13c
000000c0: 2c75 8ebd 61fc f7bd 73f0 37bb bf88 ebbd
000000d0: f0e0 ecbc 830f 80bd b9e4 1e3e beac 813a
000000e0: 40dc d23d 5c9f ccbd 2a4d 2d3d 8a6a ff3d
000000f0: f7f2 81bc 8c43 b5bd decf 42be 90e9 0c3c
00000100: ca95 343b 8ae6 b83c ed09 13bd a8fd 91bc
00000110: cd87 cf39 85ce dabd 2c3e c93c 5991 fbbd
00000120: 7978 573b 3e72 96bd 685a 9bbd b892 6d3d
00000130: 490e e93c a26a 0bbd 899a 273c d885 5b3e
00000140: 5e7f cf3c e27e ee3c 7b45 d53c 9851 debd
00000150: 14a0 383e 339c 953d ebf9 c23d 151a 7dbd
00000160: 5952 cbbc f81a f0bc 7a96 893d 636b 02bd
00000170: bcf4 b03c 4662 4c3d e4ab 01be daf9 22be
00000180: a43b ae3d c4ee 05be 25f7 7e3d f9eb acbd
00000190: 0413 a3bd 35d7 933d ca4b 403d b5e4 5cbd
000001a0: 2079 1b3d 98d6 edbd 0c4e 993d a31b 843d
000001b0: 4b9a 2c3e 2f80 ebbd 5c65 2abe 2892 58be
000001c0: aa60 383d 7163 a1bc 8df6 a03b b705 5b3d
000001d0: 8347 cf3d b4e7 cb3d d1ef 183e d96e 99bd
000001e0: c90d 593e d3b4 b6bc a350 c2bd 154c f0bd
000001f0: 7f0b 17bd 4b76 cabd de40 60be c2cb 7d3c
00000200: 4179 eabd 5b46 00be ca79 3cbe 31a3 8d3c
00000210: a748 dc3d 8fba e9bc 4797 033c 9d64 1fbe
00000220: ebc1 d33d 4e2f 0c3d 9834 973c cbfd 403d
00000230: d5dd 31be afe2 e43a 647e 7bbd 903f a3bd
00000240: 4349 e8bd 84e0 a8bc 0f5c 003e b633 8fbd
00000250: e6be 423d 04d6 83bd b4db 0dbe 4157 b3bd
00000260: f2c5 6e3d 8fac 9f3c fcd4 7ebd db01 0ebe
00000270: 67a9 7a3d f168 f1bd 8f12 29be 8419 513e
00000280: 4237 f43d 7905 12be c966 563d 0809 2abd
00000290: 6a2d cfbd 3d82 aabd e699 613d c3b3 d0bd
000002a0: e5bc 6cbc 0a4f ab3d 6d11 0b3e 0ef8 e5bd
000002b0: 4272 15b9 1959 a7bd c3de 5b3d b0c2 ecbc
000002c0: cfcf 1e3d 6a5f 143d 6a6c 3c3e 49d1 e53c
000002d0: e3b1 b93d 0f3c b43d 2d63 acbd 5854 23bd
000002e0: 915f df3d fd75 b1bd 317d debd 5582 15be
000002f0: 1b8c f5bd 9a7f 153c 6845 abbc 217b 793d
00000300: edbc 3c3d 81e3 95bd 49ff 22be 71be 47bd
00000310: 1eea 9f3d ccb7 dd3d 7cb1 e7bd be88 68be
00000320: 7bc4 edbc c12d 0abe 6816 22bd d3ed 18bd
00000330: 0f47 3fbe 071b 6dbd 5cab 2f3e ed00 21be
00000340: 730b ddbd 9743 b9bd 8ae2 85bd 1e81 dcbb
00000350: 4c39 f1bd 9ab3 f33b c23c 8f3d 40d5 183c
00000360: efaf 37bd cbe6 973b 87d1 803d fe90 9bbc
00000370: 896c 093d fc15 d33d 6705 673c 1a29 493d
00000380: b117 a23d 3da1 363c 6498 1f3d 6f3a 453d
00000390: 9ac2 0e3e 97dc 86bd da52 65be 5409 54bd
000003a0: be46 8ebe a20b 0d3e bda5 2f3e 0c75 013e
000003b0: aaea 08be 6bce cbbd 194f c9bd d1b3 11be
000003c0: 0c59 0e3e 6e0e 3dbc 490e 093c 4201 eabd
000003d0: 9e84 883d 153d 3f3d 1429 02be ade5 22be
000003e0: 1df4 05bd aa72 77bd e3cc b53d 11ac f4bb
000003f0: a4fb abba 413b 3bbc d3f9 043e e31b b23d
-0.045129605 0.08037276 -0.026712077 -0.15528776 -0.071777105 -0.09597931 -0.1820834 0.015446032
-0.06153129 -0.10506701 0.070307724 -0.13638909 -0.16477372 -0.023046585 -0.16586506 0.05138617
0.07661272 0.06769821 -0.04701851 0.076535575 0.03553151 -0.05239817 0.06595526 -0.07110828
-0.06773236 0.06943739 -0.10004223 -0.11669086 -0.08427019 0.028429031 -0.10517588 0.14545403
-0.037442565 -0.067974225 -0.08206057 -0.038697455 -0.0048632985 0.1464365 0.010158877 -0.069726825
-0.0028666083 0.05888962 -0.06960513 -0.08758911 0.20995167 0.030023066 -0.025828462 0.027570475
-0.069559425 -0.12108684 -0.0028066903 -0.115006916 -0.028915852 -0.062529586 0.15516938 0.00098934
0.102959156 -0.09991333 0.042309918 0.124714926 -0.015862925 -0.08850774 -0.19024608 0.0086006075
0.0027555102 0.022570867 -0.035898138 -0.017821148 0.00039583296 -0.10683922 0.024565779 -0.12283582
0.0032878204 -0.07346009 -0.07585603 0.05800125 0.028449195 -0.03403724 0.010229715 0.21437776
0.025329288 0.029113237 0.026034107 -0.108554065 0.18029815 0.07305183 0.09520324 -0.061792452
-0.02481954 -0.029309735 0.06718154 -0.031840693 0.021601073 0.04989841 -0.12663227 -0.15915623
0.08507469 -0.13079363 0.062247414 -0.08443446 -0.07962611 0.07218782 0.046947278 -0.05392905
0.03795731 -0.11613196 0.074855894 0.06450584 0.16855733 -0.114990585 -0.16640228 -0.21149504
0.04501406 -0.019700738 0.0049122036 0.053472247 0.10121062 0.09956303 0.14935233 -0.07491846
0.21196665 -0.02230302 -0.094880365 -0.117332615 -0.036876198 -0.09885844 -0.21899745 0.015490474
-0.114489086 -0.12526838 -0.18405834 0.01728973 0.10756045 -0.02853134 0.008031673 -0.15565725
0.10339721 0.0342248 0.018457696 0.047117036 -0.17369778 0.0017462577 -0.061399832 -0.07971108
-0.113420986 -0.02061487 0.12535118 -0.06992285 0.047545336 -0.064373046 -0.13853341 -0.08756877
0.058294244 0.019491462 -0.062214836 -0.13867895 0.06119671 -0.11787594 -0.16510986 0.2041989
0.11924602 -0.142599 0.052344117 -0.04151252 -0.10116084 -0.08325622 0.05507841 -0.10190537
-0.014449333 0.08364685 0.13580866 -0.11228953 -0.00014252312 -0.08171291 0.05367924 -0.028901428
0.0387724 0.036223806 0.18400732 0.028053897 0.09067132 0.08800518 -0.08417354 -0.03987536
0.109069 -0.086650826 -0.10863722 -0.14600499 -0.119896136 0.009124661 -0.020907119 0.06090844
0.04607861 -0.073187836 -0.15917696 -0.048765603 0.07808326 0.10826072 -0.11313149 -0.22708413
-0.029024353 -0.13494016 -0.03957215 -0.03733618 -0.1867945 -0.057887103 0.17155212 -0.1572301
-0.107931994 -0.09046095 -0.065373495 -0.006729259 -0.11778507 0.0074371817 0.069940105 0.0093281865
-0.044845518 0.004635667 0.06289964 -0.018990036 0.033550773 0.103069276 0.014100409 0.049111463
0.07914675 0.011146841 0.03896369 0.04815143 0.13941422 -0.06585043 -0.22394887 -0.05176671
-0.27788347 0.13773969 0.17153068 0.12642306 -0.13370767 -0.099514805 -0.0982954 -0.14228751
0.13901156 -0.011539085 0.008365222 -0.11426021 0.0666592 0.04668911 -0.12710983 -0.15907927
-0.032703508 -0.060412087 0.0887697 -0.007466801 -0.0013121259 -0.011427701 0.12985925 0.08696725

fc2.bias f4 [84]
00000000: 52c1 6ebd 191a 723d 00d5 383e 0659 e63e
00000010: 3076 b53e 935c 2dbd b850 b2bd aa33 e33c
00000020: d3f3 3a3e 4c1d 0e3e 693d ba3c 3b03 4f3e
00000030: 212c 2b3e 6217 fa3e b753 e43d 3320 64bd
00000040: 06f2 103e cd47 193e 84dd f0bb dcc1 babc
00000050: 3e4a d7bd 08ef b1bd ecec 36bd c5ba 0a3d
00000060: a917 613e dd8b 733e f1bc f43d b741 6b3e
00000070: bf63 153f 1006 163f 9e8e d53e 438d 683e
00000080: dbc0 e3bd 7baa 23be c25f 213e 5111 0abd
00000090: 82cf 443e 2020 fb3c 9ec4 36bd de2c 9f3d
000000a0: 3b7b fb3d 5535 503e 45cf cbbd a393 693f
000000b0: faa6 d9bd 9179 abbd 8c87 0b3e 46b7 bf3e
000000c0: 33c6 653e b694 873c 2bfe 183e 695a c43e
000000d0: 7b99 f33d ef8b 9f3e 2b34 d63d 0ff2 03bc
000000e0: 56b6 0d3f acb8 a53e 5736 c03e 9897 943a
000000f0: dfe8 4d3d 198e b73d 6f90 d63e 5cd1 923d
00000100: 6e5e 193f 6742 97bd 0094 8b3e 5cd3 d53d
00000110: c722 83bd cf69 1fbd 0b57 873e 11ce 283e
00000120: 4c32 70bd aebd f63d 62af f53e 97b4 923e
00000130: 2ea2 bc3e 5a91 da3e 5a15 593c 6f0b 863d
00000140: 5edb 2cbd 3d0e 263f ea08 2fbd e41d 683e
-0.058289833 0.05910692 0.18050003 0.44989794 0.35441732 -0.042324614 -0.08706802 0.027734596
0.18257074 0.13878363 0.02273436 0.20216076 0.16716053 0.48845965 0.1114878 -0.05569477
0.14154825 0.14968796 -0.0073506255 -0.022797517 -0.105122074 -0.0868817 -0.04465954 0.033869524
0.21981682 0.23783822 0.119501 0.22974287 0.58355325 0.58603 0.4171037 0.22710137
-0.11120769 -0.15983002 0.15759185 -0.03370792 0.19219783 0.030654967 -0.044621103 0.077722296
0.12279364 0.20332845 -0.09951643 0.912409 -0.106275514 -0.08372796 0.13625926 0.37444514
0.22438888 0.016550403 0.14940707 0.38350227 0.118945085 0.31161448 0.10459169 -0.008053317
0.5535635 0.32367456 0.37541458 0.0011336682 0.05027091 0.0896265 0.4190707 0.071688384
0.59909713 -0.07385712 0.27261353 0.10440704 -0.064031176 -0.038919266 0.26433596 0.16484858
-0.058641717 0.12047897 0.4798537 0.28653404 0.36842483 0.4268902 0.0132497195 0.065451495
-0.042201392 0.64865476 -0.04273311 0.22667652

fc3.weight f4 [10, 84]
00000000: 7ccf 31be fee9 763e 00c6 393e ffe9 17be
00000010: 6f50 083e 930d 623e 306a 893e 94aa f2bd
00000020: 5109 2a3e 9b89 efbd 5769 d63a 9294 053e
00000030: 24fb 123e b6e8 423e 09b3 08bc 0f95 c33d
00000040: 8721 893d c75b 443e 4c90 083e 66c1 1fbe
00000050: b7f3 85bd 332b 583e d3b6 693e edde fe3d
00000060: 8464 e83d 9057 b6bd b53c 833e c0d4 933e
00000070: b96c 1a3e d1de d1bd 6bcc 763d b0cf 683d
00000080: 9b90 233e 2c1e 513e e931 97be 9e7e 9fbd
00000090: 3af9 c63d e857 623e e5d0 9abd 3146 e23d
000000a0: 7e69 003e 2c4c 12be 80f0 d23c e68a 96be
000000b0: f4c3 073e 6732 e63c 862b 1abe 9a87 1d3d
000000c0: 0189 ff3d d4d0 f5bd c671 903d 14ec 10be
000000d0: e928 42be 30c3 a7bd 5e19 263e 99cd 20be
000000e0: 1326 babd ddd5 053e 530e 613e 0678 303e
000000f0: 7044 5f3d 40fa 983d cce3 46be bc4c 123e
00000100: c20e b4bd 99a0 ee3d 7bd2 99bd fdc7 903c
00000110: 0b55 7a3e 84f7 033e 14dc c53d 7410 bb3d
00000120: 3ca9 f93b f1ab b1bd 759a 12bd 0a1b 61be
00000130: 8eac a63e 668f 93be 6291 503e 1ea1 9abd
00000140: 055b 643d 2af2 81be 6092 023e d1c1 063e
00000150: 3fb0 913d d267 62be 9b2b 1e3e ae78 873c
00000160: 462f 85bd fd78 023e 77d5 aa3c 7620 653e
00000170: 216d 093e 5f87 4ebc 3409 7bbd 865f b93e
00000180: efdd d13d 620a aabe e30f 0dbe 717e ad3d
00000190: ea4a 293d 4bca ab3e 0ed0 1b3e 8fc6 da3d
000001a0: dbf8 b4bd 4aab 50bd a267 fe3c ed8a 183e
000001b0: 6c9b 5c3e e7cb 093e 3e9f f2bd 2497 223e
000001c0: c9b1 9cbe c697 42be c468 7fbe 90b5 aa3d
000001d0: 32b9 3cbc 354c 823e 3a78 64be 9356 2f3e
000001e0: 3bdf 40be efdc 75be c820 893c 1da9 633d
000001f0: 9766 423e 921e c7bd 37d7 a83d c102 8cbe
00000200: 2fc4 3a3d 2eef 613e 4823 5b3e 5b3b 71be
00000210: 4c2c eebe 32eb b73e 0d25 d0bd 3b0d 6fbe
00000220: b622 a43e 6c65 93be 7f1d a6bd 07c1 fabc
00000230: 8380 093e cd44 57bc 11d4 18be 3ddd 163e
00000240: eeb0 653e fb49 813c 0eb9 813c ebe3 bb3a
00000250: f73b 46be 2b9c 82bd b7a3 5b3e 5236 79bd
00000260: 0e78 8a3d 80e7 233e 2291 66bd 4856 47bd
00000270: 9847 f63d 5ec2 f93d b2c2 42bd 97a7 82be
00000280: 2c35 883e 834d 1dbe 8ac1 be3d c96f 35be
00000290: 6a29 9d3e 3a7e a3be 54b6 133d f02b f7bd
000002a0: 0adf 6cbb ee7a 38bd 8081 35bd f045 223e
000002b0: 301f 9e3e 685b f4bd c590 18be f66b 4fbe
000002c0: 960f 933c 566b 393e 3973 66be 47cf 97be
000002d0: 7eca 6b3e a4b6 443e c4c2 443e f9fe 3abe
000002e0: 4f27 08bd 9546 3cbe e701 3c3d 0656 803d
000002f0: c6ac a43b 56fc 5bbe 232b 69be faf3 073e
00000300: b086 2fbd 769f 3bbe 45e5 c03e f7bf 553c
00000310: ffdc 6c3e 0626 573b 9dff 4f3e ffa4 d7bd
00000320: 9650 9abc 420a 303e a5be 383e e9d6 2bbe
00000330: a78f adbd e772 343e 1473 b23c 1c20 f53d
00000340: b3ac 4fbd e285 4bbd 1deb b83d 6de3 e93d
00000350: 30ba 0cbe 97cb 283e 5e66 01be 60ef abbd
00000360: 2d42 833e df60 49bd 5df3 a03c 26fb e33d
00000370: 8e08 0dbd 8813 3d3e 26d3 923d 30e4 193e
00000380: a7c5 113e d026 49be d294 ecba 5edd 4cbd
00000390: c0b5 1dbe 3a9b 1a3e 0572 333b de85 8bbc
000003a0: e365 0c3d 73de 4fbc 7764 6f3e 7dd6 30be
000003b0: 7b37 303e cade d23b 7686 253c b53b d43c
000003c0: a766 293e 6b9a b3bd 709f 4abe 0e6e d7bd
000003d0: ec3b 9e3d c842 8d3e 8148 d63d 30f5 c63d
000003e0: 55c2 863c 9638 9b3e 270f 0e3e 2d2a 023e
000003f0: cee4 fb3c 9427 173e d393 30bd 734f e8bd
-0.17364305 0.24112698 0.18141937 -0.14835356 0.13311933 0.2207549 0.26838827 -0.118489414
0.16605116 -0.11696168 0.0016358298 0.13044956 0.14353615 0.19034085 -0.008343467 0.09549915
0.06695848 0.19175635 0.13336295 -0.1560112 -0.065406255 0.21110229 0.22823648 0.124448635
0.11347297 -0.0890342 0.25632253 0.28873253 0.15080537 -0.10247577 0.060253542 0.05683869
0.15973131 0.20421666 -0.29530266 -0.07787822 0.09715505 0.22103846 -0.07559375 0.11048544
0.12540242 -0.1428687 0.025749445 -0.29402846 0.13258344 0.028100206 -0.15055665 0.038459398
0.12477303 -0.120027214 0.070529506 -0.14152557 -0.18960918 -0.08191526 0.16220614 -0.1570343
-0.09089293 0.13069864 0.2197812 0.17233285 0.054508626 0.074696064 -0.19422835 0.14287084
-0.08791877 0.11651725 -0.07510849 0.017673487 0.24446504 0.12887388 0.09661117 0.091339976
0.0076190513 -0.08675373 -0.035791833 -0.21982971 0.32553524 -0.28820342 0.20367959 -0.07550262
0.055750865 -0.2538007 0.1275115 0.13159873 0.071136944 -0.22109917 0.15446322 0.016537037
-0.06503157 0.12741466 0.020853741 0.22375664 0.13420536 -0.012605517 -0.061288074 0.3620569
0.102474086 -0.33211046 -0.13775592 0.084713824 0.04133121 0.33552775 0.15216085 0.10682403
-0.08836528 -0.050944604 0.031055275 0.14896746 0.21543664 0.13456689 -0.11846779 0.15877968
-0.3060439 -0.1900321 -0.24942309 0.083354115 -0.011518763 0.25448766 -0.22311488 0.17122869
-0.18835156 -0.2401006 0.016739264 0.0555812 0.18984447 -0.09722628 0.08244174 -0.2734585
0.04559725 0.22063896 0.21400177 -0.23557799 -0.4651817 0.35921627 -0.10163317 -0.23344891
0.32057732 -0.28788316 -0.08111095 -0.03060962 0.1342793 -0.013138962 -0.14924647 0.14732833
0.22430775 0.015782347 0.015835311 0.0014334893 -0.19358812 -0.06377443 0.21449171 -0.06084282
0.0676118 0.16006279 -0.056290753 -0.04866627 0.12025374 0.12195276 -0.047548957 -0.25518486
0.26603067 -0.153616 0.093142584 -0.17718424 0.3069566 -0.3193224 0.036062554 -0.12068927
-0.0036143684 -0.04503911 -0.044312954 0.15846992 0.3088317 -0.11931497 -0.14898975 -0.20256028
0.017951768 0.18107352 -0.22504891 -0.29650328 0.23026463 0.19210297 0.19214922 -0.18261327
-0.033240613 -0.183863 0.04590025 0.06266408 0.005025479 -0.21482977 -0.22770362 0.13276663
-0.042853057 -0.18322548 0.3767492 0.013046256 0.23131178 0.003282906 0.20312352 -0.105295174
-0.018837254 0.17191413 0.18041475 -0.167812 -0.08474665 0.17621957 0.02178339 0.11969015
-0.05070181 -0.049688227 0.09029219 0.11420331 -0.137429 0.16483913 -0.12636706 -0.083952665
0.25636426 -0.04916465 0.019647295 0.11131887 -0.034431987 0.18464482 0.071691796 0.15028453
0.14235555 -0.19643712 -0.0018049723 -0.0500158 -0.15401363 0.15098277 0.0027381193 -0.017031606
0.034276854 -0.012687313 0.23378168 -0.17269321 0.17208664 0.00643525 0.010102859 0.025907377
0.16543065 -0.08769687 -0.19787383 -0.10519038 0.07726273 0.27590013 0.10463048 0.097147346
0.016450087 0.3031661 0.13872968 0.12711401 0.030748751 0.14761192 -0.043109726 -0.11343279

fc3.bias f4 [10]
00000000: 1f8c e6be 3a33 22bf 7c81 85be 2d25 203f
00000010: 0af1 0d3f 5fae 3fbd 24d1 3f3e 2532 e1be
00000020: 7766 b33e c6d1 83be
-0.4502878 -0.63359416 -0.2607535 0.62556726 0.5544592 -0.046797153 0.18732125 -0.4398357
0.35039112 -0.25745982
